…
Using data for region R4 | size: 256 | Central
Maghreb
Using data for region R5 | size: 256 | South
Mediterranean
Using data for region R6 | size: 256 | Central
Europe
------------------------------------------------------------------------------------------------------------------------
      Layer (type)                                  Input Shape             Output Shape         Param #     Tr. Param #
========================================================================================================================
        Identity-1                          [1, 4, 4, 256, 256]      [1, 4, 4, 256, 256]               0               0
    PatchEmbed3D-2                          [1, 4, 4, 256, 256]     [1, 16, 4, 128, 128]             304             304
         Dropout-3                         [1, 16, 4, 128, 128]     [1, 16, 4, 128, 128]               0               0
      BasicLayer-4                         [1, 16, 4, 128, 128]     [1, 16, 4, 128, 128]          18,528          18,528
      BasicLayer-5                         [1, 16, 4, 128, 128]       [1, 32, 4, 64, 64]          58,400          58,400
      BasicLayer-6                           [1, 32, 4, 64, 64]       [1, 64, 4, 32, 32]         213,792         213,792
     DecodeLayer-7       [1, 64, 4, 32, 32], [1, 64, 4, 32, 32]       [1, 64, 4, 32, 32]         277,824         277,824
     DecodeLayer-8       [1, 64, 4, 32, 32], [1, 32, 4, 64, 64]       [1, 32, 4, 64, 64]          87,104          87,104
     DecodeLayer-9     [1, 32, 4, 64, 64], [1, 16, 4, 128, 128]     [1, 16, 4, 128, 128]          30,528          30,528
           Head-10                         [1, 16, 4, 128, 128]     [1, 32, 4, 256, 256]           1,600           1,600
========================================================================================================================
Total params: 688,080
Trainable params: 688,080
Non-trainable params: 0
------------------------------------------------------------------------------------------------------------------------
Traceback (most recent call last):
  File "/home/prati/Weather4cast2021-SwinEncoderDecoder/main.py", line 393, in <module>
…
